…
ntacruel', 'Vaporeon', 'Venomoth', 'Venonat', 'Venusaur', 'Victreebel', 'Vileplume', 'Voltorb', 'Vulpix', 'Wartortle', 'Weedle', 'Weepinbell', 'Weezing', 'Wigglytuff', 'Zapdos', 'Zubat']
2025-06-14 22:56:46,443 - INFO - Preparing datasets...
2025-06-14 22:56:53,093 - INFO - Training dataset batches: 171
2025-06-14 22:56:53,345 - INFO - Validation dataset batches: 43
2025-06-14 22:56:53,483 - INFO - Building model...
2025-06-14 22:56:54,449 - INFO - 
Model: "sequential"

 Layer (type)                          Output Shape                         Param # 

 conv2d (Conv2D)                       (None, 180, 180, 16)                     448 

 max_pooling2d (MaxPooling2D)          (None, 90, 90, 16)                         0 

 conv2d_1 (Conv2D)                     (None, 90, 90, 32)                     4,640 

 max_pooling2d_1 (MaxPooling2D)        (None, 45, 45, 32)                         0 

 conv2d_2 (Conv2D)                     (None, 45, 45, 64)                    18,496 

 max_pooling2d_2 (MaxPooling2D)        (None, 22, 22, 64)                         0 

 flatten (Flatten)                     (None, 30976)                              0 

 dense (Dense)                         (None, 128)                        3,965,056 

 dense_1 (Dense)                       (None, 150)                           19,350 

 Total params: 4,007,990 (15.29 MB)
 Trainable params: 4,007,990 (15.29 MB)
 Non-trainable params: 0 (0.00 B)


2025-06-14 22:56:54,449 - INFO - Starting training...
2025-06-14 22:56:54,451 - INFO - 0epoch [00:00, ?epoch/s]
2025-06-14 22:56:54,452 - INFO - 0batch [00:00, ?batch/s]
2025-06-14 22:56:54,452 - INFO - [A
2025-06-14 22:56:54,454 - INFO - 0%|          | 0/10 [00:00<?, ?epoch/s]
2025-06-14 22:56:54,455 - INFO - 0%|          | 0.00/171 [00:00<?, ?batch/s]
…
